saved_models/backup-in-sample-exp-kernel.pt (torch, 205507 bytes, 2 tensors)

Beta f4 [506]
000000 52 a1 4f 41 31 70 a0 41 f2 dc 52 41 72 26 88 40
       12.976885 20.054781 13.178942 4.254693
000010 33 43 d1 41 25 ab 75 42 eb 8c 80 40 bf 08 a8 41
       26.157812 61.417133 4.017202 21.00427
000020 b9 69 5f 41 90 aa 6a 40 4c 77 bf 41 fb be 96 41
       13.963311 3.6666603 23.93325 18.843252
000030 31 2d 9a 41 55 65 23 40 2c 90 8c 41 d3 31 ae 41
       19.272066 2.5530598 17.570396 21.774328
000040 12 bf 9c 40 7e 1e 84 40 35 91 64 40 b6 94 46 40
       4.898324 4.128722 3.5713627 3.1028266
000050 c4 67 49 41 a3 cf 12 42 ad d0 cb 41 d4 aa 62 41
       12.587833 36.70277 25.476892 14.166706
000060 93 c5 1b 40 20 63 80 40 55 b9 87 40 56 9f 97 40
       2.433934 4.0121 4.2413735 4.7382
000070 5a bd 9f 40 85 24 96 40 d4 38 71 40 6a 37 ab 41
       4.991864 4.691958 3.7690935 21.402058
000080 d2 fc 6d 40 a2 7f dc 41 97 ae 94 40 71 d8 89 40
       3.718556 27.56232 4.646312 4.307671
000090 54 9f 24 41 73 91 b2 41 97 a8 87 41 f9 80 3c 41
       10.288898 22.32102 16.95732 11.781487
0000a0 a6 35 d4 40 c1 ba 8f 40 71 a8 61 40 90 b7 14 42
       6.631549 4.491547 3.5259058 37.17926
0000b0 da 93 70 41 8e 38 0c 40 ce 58 6c 40 0a 35 77 40
       15.036097 2.1909518 3.6929202 3.8626122
0000c0 b5 9d 76 41 d1 1f 5e 40 8a 2d 8d 40 ea cd 7a 40
       15.413503 3.470692 4.411809 3.918818
0000d0 85 ac 45 41 54 63 74 40 67 50 50 40 67 a6 e6 41
       12.354619 3.8185625 3.2549074 28.831251
0000e0 80 37 6e 40 52 82 d1 40 6a 1f a2 40 b0 57 86 40
       3.7221375 6.5471582 5.0663347 4.198204
0000f0 a2 3c 77 40 c3 7a 16 42 48 93 83 40 40 29 8c 40
       3.8630757 37.619884 4.1117287 4.3800354
000100 a5 7a 88 41 c8 35 bc 41 8b 89 1e 41 ca 2f 94 40
       17.059885 23.52626 9.90858 4.6308336
000110 9a 07 b0 40 10 64 5d 41 3a 7c 81 41 18 1f 70 40
       5.500928 13.836929 16.185658 3.7518978
000120 df 99 7f 40 25 3c 11 42 50 98 54 41 36 fd 85 40
       3.9937665 36.308735 13.287186 4.1871595
000130 40 37 70 41 6e 41 f0 40 d6 3b 9b 41 db bc c2 40
       15.013489 7.507987 19.404217 6.0855536
000140 4a 27 88 40 15 71 50 41 d2 c7 10 40 b8 e5 54 40
       4.254796 13.027608 2.262196 3.326521
000150 7e 10 43 41 a2 27 95 40 a8 6b 81 40 82 87 69 40
       12.191526 4.661088 4.0443916 3.6488957
000160 d3 21 7e 41 d4 76 87 40 c8 bc 93 41 da 0b 52 41
       15.883258 4.2332554 18.467178 13.127893
000170 5f 5b 6c 40 bc 7a 45 41 06 12 c8 40 00 35 58 40
       3.6930768 12.342464 6.2522 3.3782349
000180 5e ae 84 40 8d a1 67 40 d6 1c ed 41 a5 0c 36 41
       4.146285 3.6192353 29.63908 11.378087
000190 da 22 4a 41 c8 1f 99 40 9b b9 76 41 09 15 5f 41
       12.633509 4.7851295 15.420314 13.942636
0001a0 ef 58 22 41 29 f2 93 40 db ca 92 40 84 04 93 40
       10.146712 4.6233106 4.5872626 4.594301
0001b0 fe a4 85 41 23 25 78 40 c0 cf 73 41 76 59 62 41
       16.705563 3.8772666 15.23822 14.146841
0001c0 55 e8 c3 41 fb 2f 30 41 d9 e0 de 40 af 46 5b 41
       24.488443 11.011714 6.964947 13.704757
0001d0 4a 0c 80 40 36 5b 46 41 03 bb 93 40 12 cf 9e 40
       4.0015 12.397268 4.6165786 4.962777
0001e0 5f b7 87 41 2a 4a 0c 41 1a 20 dc 40 eb 1a 9d 40
       16.964537 8.768106 6.8789186 4.909536
0001f0 14 de 20 40 76 38 8e 3f a2 c5 7a 40 25 df 67 41
       2.5135546 1.111098 3.9183125 14.491979
000200 44 c8 75 40 1b f3 87 40 f3 dc 7c 40 a5 ba 77 40
       3.8403482 4.248426 3.9509857 3.8707669
000210 8b cd 65 40 e3 fc 4f 40 f9 16 07 41 a1 d9 70 40
       3.5906703 3.24981 8.443109 3.763283
000220 b7 76 21 41 e4 c4 25 41 84 24 90 40 a4 f8 3b 41
       10.091483 10.360569 4.5044575 11.748203
000230 31 1f 85 40 bc 95 66 40 c3 c6 80 40 7e 02 83 40
       4.1600575 3.602889 4.024263 4.094054
000240 41 80 22 41 33 b4 96 40 13 e4 96 40 6f 32 96 40
       10.156312 4.709497 4.715341 4.6936564
000250 74 30 84 41 71 14 a9 41 a3 45 5e 40 0e 58 79 41
       16.523659 21.134981 3.4730003 15.583998
000260 98 e2 7e 40 7e 62 71 40 af fe 02 41 4c e0 5b 41
       3.9825802 3.7716365 8.187179 13.74226
000270 72 26 63 40 a1 00 4f 41 d2 d7 98 40 bf 64 b6 41
       3.5492215 12.937654 4.7763453 22.799192
000280 c0 ef ba 41 25 86 6d 40 d5 9c d7 40 ec 5a 5c 40
       23.367065 3.7113125 6.7378945 3.4430494
000290 7b ad e3 41 50 9f 99 40 33 04 e6 41 07 56 3c 40
       28.459707 4.8006973 28.75205 2.9427507
0002a0 5e 0f 4e 41 f4 ad c1 41 fb f3 61 40 13 bd 9a 40
       12.878752 24.209938 3.5305164 4.8355803
0002b0 59 23 2c 41 46 bc a3 40 17 cd 4a 40 a3 18 2a 42
       10.75863 5.1167326 3.1687677 42.52406
0002c0 01 ce 6f 40 ac 4d 6d 40 a1 c8 31 41 1d 49 9a 41
       3.7469485 3.7078657 11.111482 19.2857
0002d0 43 ac 2d 42 bb 3e 26 41 b3 a7 84 41 8a f4 89 41
       43.418224 10.390315 16.581884 17.244404
0002e0 2a 47 8c 41 65 71 d7 41 b1 7e 00 42 41 2c f4 40
       17.534748 26.930368 32.123722 7.630402
0002f0 31 78 c8 41 14 c1 aa 41 30 1e 98 41 78 85 bd 41
       25.058687 21.344276 19.01474 23.69017
000300 5d bf e8 41 31 5c 7b 41 67 78 94 40 4b a2 7e 41
       29.09344 15.710008 4.6396976 15.914622
000310 0c 08 70 41 bf ae a3 41 be 7a 34 40 d5 f2 ac 40
       15.001965 20.460325 2.8199916 5.4046426
000320 50 5b 57 41 62 4e db 41 49 51 9d 41 bd 19 50 41
       13.459793 27.413273 19.66469 13.006284
000330 71 d5 9d 41 e6 e9 73 40 49 a8 47 40 c7 1d 1b 41
       19.72922 3.811151 3.1196463 9.69477
000340 92 83 17 41 43 3d 79 41 90 df 63 41 e9 e4 88 41
       9.469622 15.577456 14.242081 17.111773
000350 28 88 64 41 0a fc 7e 40 7c ae 23 42 b0 05 85 40
       14.283241 3.9841332 40.920395 4.1569443
000360 44 92 8f 40 58 b1 9f 40 54 8d 89 40 f4 71 a5 41
       4.4866047 4.9903984 4.298502 20.680641
000370 5b aa 90 40 de 36 8a 41 f9 80 68 41 df cd 5f 40
       4.5207953 17.27679 14.531487 3.4969404
000380 4b 59 6d 41 cb 2c 65 40 9a 27 04 41 4d 53 22 42
       14.8343 3.580859 8.259668 40.58135
000390 7c 19 69 41 5c 61 81 40 71 dd e0 40 42 60 90 40
       14.568722 4.0431347 7.0270314 4.51175
0003a0 bf 48 82 40 9e 35 80 40 23 d2 80 40 cf 7c 83 40
       4.07138 4.006545 4.0256515 4.1089854
0003b0 61 04 77 40 d3 4e 8a 40 b3 23 7b 40 27 c1 81 40
       3.8596423 4.322122 3.924054 4.054828
0003c0 3e cb d2 41 c4 3d b0 41 e3 fc 56 40 6e 4a ae 41
       26.34924 22.030159 3.359185 21.786343
0003d0 28 7e 4d 40 11 17 8a 41 0a b2 32 41 cc 7f 91 40
       3.210825 17.261263 11.168467 4.54685
0003e0 1b e9 b6 41 60 1a d4 41 c2 ab fb 40 76 d9 8b 40
       22.863821 26.512878 7.8647165 4.3702955
0003f0 2f 0a 76 40 39 ab 6b 40 49 03 34 41 d7 8c 9a 41
       3.8443716 3.6823256 11.250802 19.31877

Alpha_nonzero f4 [50600]
000000 a8 e0 1a 3f 8a ae b9 40 50 29 3e 40 f3 39 c7 3f
       0.6049905 5.802556 2.9712715 1.556456
000010 5a 01 27 40 a1 63 6e c0 75 d0 b1 3f 3a 7e 92 be
       2.6094575 -3.7248309 1.3891741 -0.28611928
000020 2a 54 a8 bf 00 39 b4 3f 7d bf 98 3e 6e 08 d9 bf
       -1.3150685 1.4079895 0.29833594 -1.6955698
000030 45 d9 d6 3f ad 00 2a 40 59 75 e7 bf b7 ff fb 3e
       1.6785055 2.6562912 -1.8082687 0.49218532
000040 4e 66 9a c0 52 1f a8 bf 9b d6 89 be 01 7f 0d 3f
       -4.8249884 -1.3134558 -0.26921543 0.5527192
000050 0c cc cd 3f 46 78 26 3f c6 d0 8b bf 79 ec 30 40
       1.6077895 0.6502727 -1.0923088 2.7644331
000060 e1 f6 1b 3f f7 43 39 40 12 e8 70 c0 e5 7c 0b 40
       0.6092358 2.8947732 -3.7641644 2.179498
000070 45 06 e0 3f 05 d4 17 c0 e5 ce 38 40 88 90 b8 bf
       1.7501913 -2.3723156 2.8876278 -1.4419107
000080 47 07 be 3f f8 01 83 3f 12 0f 14 40 50 3b b3 3f
       1.4845971 1.0234976 2.3134198 1.4002476
000090 95 7b b0 3e 3e bb 15 40 18 a6 4a 40 2d 72 1f 40
       0.34469286 2.3395534 3.1663876 2.4913437
0000a0 5b 54 20 3f 40 aa 02 40 52 48 31 c0 c4 c5 27 be
       0.62628716 2.0416412 -2.770039 -0.16384035
0000b0 18 88 4d 40 4c c6 03 40 fc 6e 0b 40 4d af 82 c0
       3.2114315 2.058978 2.178649 -4.083899
0000c0 89 e2 0b 3f 2c f6 9d 3f 44 7a 6a 3f 64 0e 8d 3f
       0.5464254 1.2340751 0.9159281 1.1020017
0000d0 ae a7 f6 bf 7b 95 c6 bb f0 0a 3d bf 77 5c 10 40
       -1.9269922 -0.0060603 -0.73844814 2.2556436
0000e0 74 03 06 c0 0a f2 af 3f b3 04 df 3f cb 0f 1b be
       -2.0939608 1.374574 1.7423309 -0.15142743
0000f0 d5 d0 e1 c0 1b ef 41 c0 e4 dc e9 bf 6c a5 b9 3f
       -7.056742 -3.0302188 -1.8270535 1.4503608
000100 5b 2d 0a c0 6f 1d 7d bf da 7b bd 3f 5d 54 2a 3e
       -2.1590183 -0.9887304 1.4803421 0.16633745
000110 dc 0e ad 3f ce d2 94 3f 65 82 ff 3f c3 a0 73 3f
       1.352016 1.1626832 1.9961668 0.9516718
000120 17 e6 76 c0 2b 3b 6a be fc b0 70 be 71 a1 51 3f
       -3.8577936 -0.22874133 -0.23505014 0.81886965
000130 7c 80 3a 3f fe 94 00 bf 91 42 93 be 51 18 da 3f
       0.728523 -0.50227344 -0.28761724 1.7038671
000140 68 45 c0 bf 4f 9d ef be d1 4a 0b 40 88 b0 9e bf
       -1.5021181 -0.46799704 2.1764414 -1.2397623
000150 f9 fc 57 c0 4c 7f 82 40 5a 7a 6a c0 89 c3 89 be
       -3.3748152 4.078039 -3.6637177 -0.26906994
000160 26 97 01 bf a6 6f 25 40 72 73 49 3f 80 cd 0a c1
       -0.5062126 2.5849395 0.7869178 -8.675171
000170 94 99 8d 3d b3 50 a4 bf 5a 9c 5c 3f 81 7b 12 bf
       0.06914058 -1.2837127 0.86176074 -0.572197
000180 e3 c8 38 40 1d bf 5f bd b1 12 8a 3f 5f f7 4e 3f
       2.8872612 -0.05462562 1.0786954 0.8084621
000190 26 3a 90 bf a6 fc 10 3f e5 d5 01 40 b8 97 73 40
       -1.1267745 0.5663551 2.02868 3.8061352
0001a0 36 15 6c 40 24 c0 04 c1 90 9e c6 3e 66 7c ee be
       3.6887946 -8.296909 0.3879285 -0.46579283
0001b0 1c 81 c4 3f b9 e4 93 bf 6f cc 82 c0 88 75 57 bf
       1.5351901 -1.1554176 -4.0874553 -0.84163713
0001c0 8b 05 10 bf 98 43 71 3f b0 78 e4 bf 63 5c dc bf
       -0.5625846 0.94243765 -1.7849331 -1.7215694
0001d0 ee c5 b0 c0 ef e7 10 c0 46 5e 54 bf bf 03 20 40
       -5.5241613 -2.264156 -0.8295635 2.5002286
0001e0 01 1b 01 40 3f 3e b1 3e c4 20 f7 bf 42 bf 20 40
       2.0172732 0.34617803 -1.9306874 2.5116735
0001f0 cb da 7f 3f 49 02 86 3f da 3d 8d bf a4 47 91 bf
       0.99943227 1.0469447 -1.1034501 -1.1349988
000200 1c e1 81 be bf 02 f3 3f 62 f6 ed be d4 49 8e c0
       -0.25367057 1.8985213 -0.46477038 -4.446512
000210 3c eb 19 40 5c 18 44 3c 08 ae 84 40 70 67 26 bf
       2.4049826 0.011968698 4.146244 -0.65001583
000220 36 04 3e be de 51 26 3e 10 b1 35 40 42 fd 8c 3f
       -0.18556294 0.16242167 2.838932 1.1014788
000230 b0 70 17 bf 3c 69 9a 3f 0f 78 87 bf b5 9a 39 3f
       -0.5915632 1.2063365 -1.0583514 0.7250169
000240 a2 81 db 3e 59 62 1f 3f 03 39 cc be 8e 1f b5 c0
       0.4287234 0.6225944 -0.39887246 -5.660102
000250 e7 ca fb bf 1d 3c 9f 3f 31 d7 40 3f 41 84 9d bf
       -1.9671296 1.244022 0.75328356 -1.2305986
000260 f9 16 81 bf 45 5f 8e bf 8e 4a ff bf f4 5e e5 3f
       -1.0085136 -1.1122824 -1.9944627 1.7919602
000270 b7 cd 1d be e4 eb d9 3f 6a 21 f2 3e 75 bd a7 be
       -0.15410505 1.7025113 0.47291118 -0.32761732
000280 dc 94 38 c1 8d 4e a0 c0 05 d5 1d be d8 a3 a0 be
       -11.536343 -5.0095887 -0.15413292 -0.31375003
000290 cd b4 28 be 88 30 17 be ab 51 a3 bf a9 02 87 3e
       -0.1647522 -0.14764607 -1.2759298 0.26369217
0002a0 23 b0 85 3f b6 6b fc bd 74 05 12 3f 38 52 f3 3e
       1.0444378 -0.12325232 0.5703957 0.47523665
0002b0 56 b7 51 c0 9a 75 5b 3f 5b be 04 3f 55 10 e3 3f
       -3.276815 0.8572632 0.5185296 1.7739359
0002c0 76 7d b3 bd 80 f1 f4 bf be 0a 11 bf a4 c7 29 be
       -0.08764164 -1.91362 -0.56657016 -0.16580063
0002d0 89 15 f6 bf e8 52 33 3e f8 7e 02 3f 64 00 2e bf
       -1.9225322 0.17512095 0.5097499 -0.67969346
0002e0 24 6c 5b c0 30 99 dd 3f ef a4 20 c0 1b 05 04 3f
       -3.4284754 1.7312374 -2.5100667 0.5157029
0002f0 8b ad 43 bf 59 4c 0b 3f 70 6c dc 3f 63 43 17 c1
       -0.7643668 0.5441337 1.7220592 -9.453952
000300 a2 72 67 3f f3 e1 79 bf 38 9b e2 3f d4 33 15 bc
       0.9040929 -0.97610396 1.7703619 -0.009106595
000310 17 4e 02 40 96 34 1b 3f 54 fd 38 40 bd 5a 09 bf
       2.0360162 0.60627115 2.890462 -0.5365408
000320 b9 d4 a7 3e c3 95 50 3f bf 03 7b bf 5d d0 7d 3f
       0.32779482 0.8147852 -0.9805259 0.9914606
000330 ea a1 f3 bc 85 8c 2b bf fb 48 1a c0 98 b4 04 3f
       -0.029740293 -0.6701129 -2.4107044 0.51838064
000340 5d 57 93 3f 2b 5b 48 3e 11 0c 9e bf 48 0f d9 bd
       1.1511036 0.19566028 -1.2347432 -0.10598618
000350 13 d6 78 bf bc ad 08 3f c5 a5 d8 bf 42 71 83 3f
       -0.9720165 0.533901 -1.6925589 1.0268939
000360 eb 73 da 3e 21 a0 3c be e7 d0 2b 3f 96 c0 b3 3d
       0.42666563 -0.1842046 0.67115635 0.08776967
000370 f8 f3 ce 3f 55 1e 9f 3e 38 68 2f c0 9b c7 1a bf
       1.6168203 0.3107783 -2.740736 -0.60460824
000380 a8 ab 9c 3d 1c b9 34 c0 bb ce a7 bf 13 9d f5 3e
       0.07649928 -2.8237982 -1.3109964 0.479714
000390 50 7f 98 be 2d 5a 14 bf 1d 41 c0 be b5 c9 9e 3f
       -0.29784632 -0.579501 -0.37549677 1.2405306
0003a0 49 6b 82 3f 7d b8 07 40 41 6f 40 bf b8 a2 da 3e
       1.0188991 2.1206353 -0.7516976 0.4270227
0003b0 8c da 38 bf 38 a5 ce 3c 36 58 57 3f 14 34 2f be
       -0.72208476 0.025225267 0.84118974 -0.1710971
0003c0 98 57 d5 bf f2 7c 32 3f 48 f0 ba bf d1 7e 2f 3f
       -1.6667356 0.697219 -1.4604578 0.6855288
0003d0 eb 1a b2 3e 5c 48 53 3f fb 61 07 3f 27 69 94 c0
       0.34786162 0.82532287 0.5288388 -4.637836
0003e0 a0 4e 33 3f be df ed be dd d2 c6 3f 72 a3 6f bf
       0.7004185 -0.46459764 1.55331 -0.9360877
0003f0 54 8c df 3f 4b 77 e2 bf e1 c6 3d 40 e9 18 e8 3f
       1.74647 -1.7692655 2.9652636 1.8132602
