saved_models/in-sample-exp-kernel.pt (torch, 205507 bytes, 2 tensors)

Beta f4 [506]
0	0x4103ee56	8.2456875
1	0x4107c74d	8.486157
2	0x41046ce0	8.276581
3	0x4080477b	4.0087256
4	0x4096fd51	4.7184224
5	0x411a27bf	9.634704
6	0x405586d0	3.3363533
7	0x40cffdf4	6.49975
8	0x40d0cf08	6.5252724
9	0x40a334e9	5.1002088
10	0x410760f3	8.461169
11	0x41364427	11.391639
12	0x40a090c2	5.0176706
13	0x408fcfd1	4.494118
14	0x40b81f68	5.753834
15	0x40cc335c	6.3812695
16	0x40aac34d	5.3363404
17	0x4083655c	4.106123
18	0x40992fde	4.787093
19	0x40f09e41	7.519318
20	0x407fafe6	3.995111
21	0x40f6e24b	7.7151237
22	0x40db9b81	6.8627324
23	0x40bd376d	5.913016
24	0x403a8dcf	2.9149053
25	0x40506841	3.2563632
26	0x407c7392	3.9445539
27	0x40bad30a	5.8382616
28	0x40a41155	5.1271157
29	0x40821ce3	4.066026
30	0x404fe133	3.24812
31	0x40e6d88e	7.213935
32	0x40d72583	6.723329
33	0x40b05b4f	5.511146
34	0x409b0853	4.844766
35	0x40867062	4.2012186
36	0x409e3093	4.9434295
37	0x40ac8413	5.3911223
38	0x40bd8e42	5.9236155
39	0x41015ee1	8.085664
40	0x409d58f2	4.9171076
41	0x4097506a	4.728566
42	0x407cfbdb	3.952872
43	0x40ef8203	7.4846206
44	0x409eaaf7	4.9583697
45	0x402cb243	2.6983802
46	0x4012a88a	2.2915368
47	0x4246d737	49.71017
48	0x40969f35	4.7069345
49	0x40667cdd	3.601371
50	0x40c707b8	6.219692
51	0x40930fac	4.595663
52	0x40feebe1	7.966294
53	0x409aee9d	4.8416276
54	0x40791fab	3.8925579
55	0x40bec9b1	5.9621205
56	0x403f58b8	2.98979
57	0x40d70ebe	6.7205496
58	0x408a65d1	4.3249288
59	0x409538a9	4.6631665
60	0x409777ac	4.7333584
61	0x4101c2d6	8.110067
62	0x4062a909	3.541567
63	0x40c10280	6.031555
64	0x412d0632	10.814013
65	0x40bf2269	5.9729505
66	0x40a45922	5.1358805
67	0x40995cc1	4.7925725
68	0x40b7543c	5.7290325
69	0x40cebda0	6.4606476
70	0x40eaf896	7.342845
71	0x404c9dfe	3.197143
72	0x4069bd64	3.6521845
73	0x40cfaebd	6.4900804
74	0x40ee361e	7.444106
75	0x4084d6ea	4.1512346
76	0x40aac0da	5.3360415
77	0x409107ce	4.5322027
78	0x40b575f4	5.6706486
79	0x408f2be4	4.4741077
80	0x405d6c2d	3.4597275
81	0x40efd720	7.4950104
82	0x4077ffce	3.874988
83	0x406a524c	3.661273
84	0x4076fd58	3.8592129
85	0x40f07afc	7.5150127
86	0x4077469f	3.8636854
87	0x404ffda2	3.2498555
88	0x40937055	4.6074624
89	0x4081d3f9	4.0571256
90	0x4114c2e2	9.297579
91	0x40d8e959	6.778485
92	0x408a58a2	4.3233194
93	0x408ef675	4.467585
94	0x40ac6961	5.3878636
95	0x403d1fb5	2.9550602
96	0x405c81a2	3.4454122
97	0x40887cad	4.265219
98	0x413ee341	11.930482
99	0x4114431c	9.266384
100	0x40e1daa2	7.0579386
101	0x4097eb5e	4.7474813
102	0x4077082b	3.8598735
103	0x40872d36	4.224269
104	0x40c7aa87	6.2395663
105	0x40aad7ca	5.3388414
106	0x40e5d619	7.182385
107	0x4084dc29	4.151875
108	0x40a9f3e0	5.31102
109	0x401f9357	2.493368
110	0x4092f756	4.5926924
111	0x41097131	8.590135
112	0x409682a1	4.703446
113	0x41056d1f	8.339141
114	0x40cfcd4e	6.4938116
115	0x40822841	4.067414
116	0x4077ab9d	3.8698494
117	0x40860ae4	4.1888294
118	0x40819708	4.0496864
119	0x40a576bd	5.1707444
120	0x40fb7c3b	7.858915
121	0x40dd84ed	6.9224763
122	0x40a49af5	5.1439157
123	0x4082f262	4.0920877
124	0x3fd4d221	1.6626626
125	0x40c61ca4	6.190996
126	0x40a6edca	5.216527
127	0x40c18b36	6.0482435
128	0x4090a674	4.520319
129	0x4057146c	3.3606215
130	0x4054557e	3.317718
131	0x404f9289	3.2433188
132	0x4046897e	3.1021419
133	0x4056ae3c	3.3543844
134	0x40b78256	5.73466
135	0x405b70a4	3.42875
136	0x40b2e98a	5.591008
137	0x40a1fcd6	5.062114
138	0x405d0477	3.4533975
139	0x40ba57ff	5.8232417
140	0x406f5b77	3.7399576
141	0x408b12cf	4.346046
142	0x40853c8e	4.163642
143	0x407bd3b3	3.934796
144	0x40a93cd5	5.288676
145	0x408a023b	4.3127723
146	0x408b0ce0	4.3453217
147	0x4059903f	3.399429
148	0x40b5b6be	5.6785574
149	0x40a1fc76	5.062068
150	0x4010e3ac	2.263896
151	0x40a738ed	5.225699
152	0x407db2e4	3.9640436
153	0x4072d3e9	3.794184
154	0x40b5a9ef	5.676994
155	0x40721d51	3.7830393
156	0x408331ec	4.099844
157	0x409b03de	4.844222
158	0x407012e2	3.7511525
159	0x40945ac0	4.636078
160	0x40e709b2	7.2199335
161	0x406ec12c	3.7305403
162	0x40c24a4c	6.0715694
163	0x4050effa	3.264647
164	0x40fbdff6	7.871089
165	0x409b5e58	4.8552666
166	0x40b38989	5.610539
167	0x406bb208	3.6827412
168	0x40b0f61a	5.5300417
169	0x41041e08	8.257332
170	0x404044f5	3.0042088
171	0x408523e4	4.160631
172	0x40806bc1	4.0131536
173	0x40d5456f	6.664726
174	0x409157c8	4.5419655
175	0x40ea6454	7.324747
176	0x40aa2f70	5.3182907
177	0x40ef51c2	7.47873
178	0x40b1ce18	5.556408
179	0x40d6ded4	6.7147007
180	0x40bd202a	5.9101763
181	0x40bb7d6d	5.859061
182	0x40ad5100	5.4161377
183	0x40eb191f	7.3468165
184	0x40d08dbc	6.5173016
185	0x40b94caa	5.7906084
186	0x40c4b4dc	6.1470776
187	0x40fa806c	7.8281765
188	0x40c27b17	6.0775256
189	0x4121f0a5	10.121251
190	0x40c03cea	6.007436
191	0x410a9276	8.660757
192	0x40cd22a6	6.4104795
193	0x41099787	8.599494
194	0x4095c672	4.6804743
195	0x4052e960	3.295494
196	0x40c19af9	6.0501676
197	0x40e53677	7.1628985
198	0x40956027	4.6679873
199	0x40ad22a8	5.4104805
200	0x40bd83e8	5.922352
201	0x407014b4	3.7512636
202	0x41037f5b	8.218593
203	0x40b49e34	5.644312
204	0x41018841	8.095765
205	0x40e8820d	7.2658753
206	0x407b0906	3.9224257
207	0x40bd2abb	5.911466
208	0x40de6900	6.9503174
209	0x413b7b6a	11.71763
210	0x40e5cc1a	7.1811647
211	0x40b87fab	5.7655845
212	0x40d74c4c	6.7280636
213	0x4089440c	4.2895565
214	0x41014e39	8.081597
215	0x4088cb94	4.274851
216	0x40b8260b	5.754644
217	0x40c10bad	6.0326753
218	0x40a825bb	5.254606
219	0x40f08e6d	7.517386
220	0x40767cef	3.8513753
221	0x40dcef5f	6.90422
222	0x41120b52	9.127764
223	0x40c6b74c	6.209875
224	0x40a89430	5.2680893
225	0x40b1201b	5.535169
226	0x40bfe945	5.9972253
227	0x40fa510d	7.822394
228	0x406153ea	3.5207467
229	0x407fb519	3.9954283
230	0x40dd9196	6.9240217
231	0x4072111c	3.7822943
232	0x408d3865	4.413134
233	0x4068c7c2	3.6371922
234	0x40720ce8	3.7820377
235	0x4086706a	4.2012224
236	0x405b155e	3.4231791
237	0x40857e34	4.1716557
238	0x405f8906	3.4927382
239	0x406bbe27	3.683481
240	0x40c86fbe	6.2636404
241	0x410dd1a7	8.863685
242	0x40a5dffe	5.183593
243	0x40df63be	6.9809256
244	0x408337d5	4.1005654
245	0x40bbcb1a	5.8685427
246	0x40b3f57a	5.6237154
247	0x40da4f0d	6.8221498
248	0x408d193f	4.409332
249	0x40bc68ee	5.887809
250	0x40b3a37f	5.613708
251	0x40735ad4	3.8024187
252	0x405d5db3	3.458844
253	0x40932056	4.5976973
254	0x40dc2f82	6.8807993
255	0x40880740	4.250885

Alpha_nonzero f4 [50600]
0	0x3f1ae0a8	0.6049905
1	0x40424a50	3.0357857
2	0x403b1a32	2.9234738
3	0x3f1bdeed	0.6088703
4	0x3f720bb9	0.9454914
5	0x3ea1d3fb	0.3160704
6	0x3f17d2d3	0.5930607
7	0xbeeab233	-0.4583908
8	0xbfb76933	-1.4328979
9	0x3f9d476e	1.2287424
10	0x3fba89a6	1.4573257
11	0xbf97f4b9	-1.1871558
12	0x3fb55948	1.4167871
13	0x3fef133a	1.8677742
14	0xbfedf881	-1.8591462
15	0x3f7cd04b	0.9875533
16	0xbf8df571	-1.1090528
17	0x3ed20329	0.41018036
18	0xbed0d739	-0.40789202
19	0xbf4bf693	-0.7967312
20	0x3f8c3a7a	1.0955346
21	0x3f26345b	0.6492364
22	0x3cb195d3	0.021677887
23	0x3febad40	1.8412247
24	0x3ccf4043	0.025299197
25	0x402e6fc6	2.725572
26	0xc00a25ce	-2.1585574
27	0x3f9f9f67	1.2470521
28	0x3fa9b6df	1.3258933
29	0xc017d405	-2.3723156
30	0x3ff1fc9a	1.8905213
31	0x3fa0719c	1.2534671
32	0x3ec1541d	0.37759486
33	0x3f530832	0.8243438
34	0x3f1e9365	0.61943656
35	0x3fdca9b5	1.723929
36	0x3ee85e9c	0.4538468
37	0x3fcf86cf	1.6213015
38	0x3fac6c01	1.347046
39	0x401f0703	2.484803
40	0x3e2cfb29	0.16892685
41	0x3f75d604	0.96029687
42	0xc02a9995	-2.665624
43	0x3dd667e1	0.10469032
44	0x400a737b	2.1632984
45	0x3f15331c	0.5828111
46	0x3faf4f39	1.3696052
47	0x3f0a492b	0.54017895
48	0x3f0eb6fa	0.5574795
49	0x3f403c30	0.7509184
50	0xbd6853e2	-0.056720622
51	0x3f3eb5c0	0.7449608
52	0xbf9c61fd	-1.2217404
53	0xbd24f222	-0.04026998
54	0xbdafac94	-0.085778385
55	0x3f276257	0.6538443
56	0xbfec0b70	-1.844099
57	0x3f5ab036	0.85425127
58	0x3f658f80	0.8967209
59	0xbe4fd087	-0.2029439
60	0x3e9e16de	0.3087682
61	0xbe62f8d7	-0.22165237
62	0xbfa2d296	-1.2720516
63	0x3eba88fa	0.3643263
64	0xc00a2d5b	-2.1590183
65	0xbf829d0a	-1.0204175
66	0x3fc07f0a	1.5038769
67	0x3f3a959e	0.7288455
68	0x3ee84556	0.453654
69	0x3fa77b4c	1.3084502
70	0x3f99cf00	1.2016296
71	0x3e3ca549	0.18422426
72	0xbf6d94e9	-0.92805344
73	0xbfa19499	-1.2623473
74	0xbeb7be2d	-0.3588728
75	0x3fba9ea0	1.4579659
76	0x3f40dc16	0.75335824
77	0x3effe66e	0.4998049
78	0xbeb139de	-0.34614462
79	0x3faf8958	1.3713789
80	0xbf3a2abc	-0.7272146
81	0xbefcf866	-0.49408263
82	0x3fa8de45	1.3192831
83	0xbfaaf3e2	-1.3355677
84	0xbe992199	-0.29908445
85	0x400c1d64	2.1892939
86	0xbeafe6e9	-0.34355858
87	0xbd54a6a8	-0.05191675
88	0x3e09fb88	0.13474858
89	0x3f8239c8	1.0173883
90	0xbed98d9f	-0.4249086
91	0xbff315c3	-1.8991016
92	0xbf6d5f9a	-0.92724
93	0xbf65b210	-0.89724827
94	0xbe821254	-0.25404608
95	0xbf35f0de	-0.7107066
96	0x3fb1fc1c	1.3905063
97	0xbd7cbf3e	-0.06170582
98	0xbe197362	-0.14985421
99	0x3f112854	0.5670216
100	0xbf914799	-1.1349975
101	0x3f10fca6	0.5663551
102	0x3f8cd3d1	1.1002141
103	0x40161677	2.3451211
104	0x403bcd75	2.934415
105	0xc0350635	-2.8285038
106	0xbcc86e3f	-0.024466632
107	0xbe449fd1	-0.1920159
108	0x3fb99bf0	1.4500713
109	0xbf414d61	-0.75508696
110	0xbfac64c6	-1.3468254
111	0xbe2ed79b	-0.17074434
112	0xbf000561	-0.5000821
113	0xbee7c109	-0.45264462
114	0xbfe5eb7f	-1.7962493
115	0xbf85b2cb	-1.0445188
116	0xbf072c93	-0.5280239
117	0xbe29f777	-0.16598307
118	0xbf5aac61	-0.8541928
119	0x3f89f3c6	1.0777519
120	0x3f8cf2ad	1.1011559
121	0x3ec38a8d	0.38191643
122	0xbefeefb3	-0.4979225
123	0x401d4010	2.457035
124	0x3f648e4a	0.89279616
125	0x3fa009c3	1.2502979
126	0x3fc8c86a	1.5686162
127	0xbf76f2dd	-0.9646433
128	0xbe0af28c	-0.13569087
129	0x3ff302bf	1.8985213
130	0xbf959d54	-1.1688638
131	0xbf4e5c9b	-0.80610055
132	0x3fbb432f	1.4629878
133	0xbe0459b8	-0.1292485
134	0x3ffc765e	1.9723623
135	0xbe4d2fc3	-0.20037751
136	0xbdd39164	-0.103304654
137	0xbec108ce	-0.3770203
138	0x3f5b2995	0.85610324
139	0x3fd7ad2c	1.6849723
140	0x3f9149bd	1.1350628
141	0x3faf9036	1.3715885
142	0xbf506d38	-0.81416655
143	0x3f8ce7b6	1.1008213
144	0x3ec8f656	0.3925044
145	0x3dceedae	0.101039276
146	0xbf1288f7	-0.5724024
147	0x3e9dd8d8	0.308295
148	0xbfe67e35	-1.8007265
149	0x3fa11402	1.2584231
150	0xbda67f3e	-0.08129738
151	0xbfa283b8	-1.2696447
152	0xbdeaef5c	-0.114714354
153	0xbf8acbf2	-1.0843489
154	0xbf9148ec	-1.1350379
155	0x3f0ff07f	0.5622634
156	0x3e763633	0.24044113
157	0x3f4615b5	0.7737687
158	0xbda89933	-0.082323454
159	0xbebb8565	-0.3662521
160	0xbfe28cdb	-1.7699236
161	0xbf4110a6	-0.7541603
162	0xbe2762ea	-0.16346326
163	0xbf60592a	-0.87636054
164	0xbe28b4cd	-0.1647522
165	0xbe515bf7	-0.20445238
166	0xbf9a28bb	-1.204368
167	0x3f8466ec	1.0343909
168	0x3edf7f5a	0.4365185
169	0x3f1345a5	0.57528144
170	0x3e9c17a4	0.30486786
171	0x3de2282b	0.11042818
172	0x3f17dea5	0.59324104
173	0xbcfacaed	-0.03061434
174	0x3ec3e410	0.38259935
175	0x401be639	2.4359267
176	0x3dd18de1	0.102321394
177	0xbf19aea3	-0.600321
178	0xbf122a91	-0.570962
179	0xbeadae6d	-0.3392214
180	0xbf5fee1e	-0.87472713
181	0x3e83fe77	0.2578008
182	0x3d8259d3	0.06364789
183	0xbf361209	-0.7112127
184	0x3f36aa6d	0.713538
185	0x3f075efd	0.52879316
186	0x3ffe4733	1.9865478
187	0x3f32a20f	0.6977853
188	0x3dcca593	0.09992518
189	0xbf3860f6	-0.7202295
190	0x3f8f74da	1.1207535
191	0xbecfc829	-0.40582398
192	0xbe6eae68	-0.23308718
193	0x3e01ae98	0.12664258
194	0x3f33abba	0.7018391
195	0xbdf4e72e	-0.119581565
196	0x3ea77e29	0.3271344
197	0x3f1bc2df	0.60844225
198	0x3fe9d723	1.826878
199	0xbf27c094	-0.65528226
200	0x3e4676c8	0.19381249
201	0x3f1548a4	0.58313966
202	0xbf7b03bf	-0.9805259
203	0x3f9256f7	1.143279
204	0xbd0713af	-0.032977756
205	0x3e7fe650	0.24990201
206	0xc018a924	-2.3853235
207	0x3f216abe	0.630535
208	0x3f920024	1.1406293
209	0x3e15586e	0.14584514
210	0x3e969f62	0.29418474
211	0xbd675c58	-0.05648455
212	0xbf5e2aab	-0.86783856
213	0x3ef436ea	0.47698146
214	0xbf6fd8d7	-0.93690246
215	0x3f837142	1.0268939
216	0x3f2d4739	0.676868
217	0x3f1188f9	0.5684963
218	0x3f44bda8	0.7685189
219	0x3db3c096	0.08776967
220	0x3fb7e0b2	1.4365447
221	0x3eea63b9	0.45779207
222	0xbeeac1cd	-0.45850983
223	0xbf2e86b9	-0.6817432
224	0x3c872165	0.016495416
225	0xbf1b8c09	-0.6076055
226	0xbf2edc15	-0.6830457
227	0x3ef59d13	0.479714
228	0xbe203d0c	-0.15648288
229	0xbf145a2d	-0.579501
230	0xbeb94e5a	-0.3619259
231	0x3f84d1f5	1.0376574
232	0x3fc90137	1.5703496
233	0x4007b87d	2.1206353
234	0xbf4e29b4	-0.80532384
235	0x3f991736	1.1960208
236	0xbf04e838	-0.5191684
237	0x3e2e081b	0.1699528
238	0x3f871784	1.0554051
239	0x3f6db306	0.92851293
240	0xbfbc2abe	-1.4700544
241	0x3f5874b2	0.8455306
242	0xbf6a693a	-0.91566813
243	0x3f8e596b	1.1121038
244	0x3eb21aeb	0.34786162
245	0x3f4bdbdd	0.7963236
246	0xbd83b990	-0.064318776
247	0x3f9d8cfc	1.230865
248	0x3f602fc6	0.87572896
249	0xbeee710b	-0.4657062
250	0x3fc79dc3	1.559502
251	0x3e150141	0.1455126
252	0x3fdf8c54	1.74647
253	0xbf0253d7	-0.5090918
254	0x3fe8f61e	1.8200109
255	0x3fd67eb3	1.6757416
